EDO/mejor_modelo.pth (torch, 12284 bytes, 7 tensors)

fcs.0.weight f4 [32, 1]
00000000: f6ce acbf f268 38bf 7c86 8abf be70 5ebf
00000010: 6c21 a7bf 4d12 6e3f fe70 a5bf 822d 29bf
00000020: c6f0 573f a52c 4ebf 61e0 a33f dde8 533f
00000030: 5778 823f d479 ab3f d1b4 9fbf 6463 ee3e
00000040: 8840 87bf 881e 123f 90d9 80bf 77f2 523f
00000050: fe90 2c3f ac59 67bf d108 81bf 17d5 3f3f
00000060: b537 af3f 889b 713f 139a 2bbf 3b93 56bf
00000070: c930 913f 388a 9bbf 764e 573f e5ba 50bf
-1.350066 -0.72035134 -1.0822291 -0.8689078 -1.3057075 0.92996675 -1.2925107 -0.66085064
0.84351766 -0.8053687 1.280285 0.82777196 1.0192975 1.3396554 -1.2477056 0.46560204
-1.0566568 0.57077837 -1.0066395 0.8240122 0.6740874 -0.90371203 -1.0080816 0.74934524
1.3688875 0.94377947 -0.67031974 -0.83818406 1.1343013 -1.2151556 0.84104097 -0.8153518

fcs.0.bias f4 [32]
00000000: d21d 413f 98d1 35bf c44e 503e e09c 2a3f
00000010: 46f1 853f 72c3 19bf 3c54 623f c1a2 8fbf
00000020: b429 aebe 576a 9abf 2b5b 453d 888f 1e3f
00000030: 0665 17bf 94dd 553e 03d9 85be 8f13 91bf
00000040: 198a 4d3f d06e 833f e313 503f d424 723f
00000050: bdf1 4a3f 8eb5 eb3e 481d 4a3f d20c b1be
00000060: 155c 57bf fc71 27bf 53b6 ecbe fa45 4c3e
00000070: 5f4f 38be 9f71 443f 4784 0b3f ff33 49bf
0.7543613 -0.7102294 0.20342547 0.6664562 1.0464256 -0.6006385 0.8840978 -1.1221544
-0.34016192 -1.2063702 0.048182648 0.6193776 -0.59138525 0.20885307 -0.2614213 -1.1334094
0.80288845 1.0268192 0.81280345 0.94587445 0.79275113 0.46036953 0.7895093 -0.34580094
-0.8412488 -0.654083 -0.46232852 0.19948569 -0.17999028 0.7673587 0.54498714 -0.78594965

fch.0.0.weight f4 [32, 32]
00000000: 257b ff3e acc9 df3e 37b1 4c3f 6571 fb3e
00000010: b8da 933e 6a6f 31bf 14de 253e 519f 6c3e
00000020: 2eb7 58bf c99c 023f c70a 17bf ec87 1bbf
00000030: 783a 38bf ce73 22bf dcec 453f dc41 0d3d
00000040: 3534 be3e 4778 85be 46e9 cb3e c006 e2be
00000050: 726f 12bf 43a1 2d3f ea0e da3e f70c 4ebf
00000060: 32e2 d1be aa05 f1be 4c41 133f be9b 2c3f
00000070: e7e8 53bf c9e2 cc3e e344 f9be 39e1 8b3e
00000080: 1346 ecbb cc06 463e 470a 1e3e 9669 bebc
00000090: c886 353d 2e40 313d 7428 6bbd 649f 183d
000000a0: 87b2 893d 3e79 853e a905 2fbd 2819 52be
000000b0: d4aa 3bbe 4ce7 93be 64fc 153e 6d72 3e3c
000000c0: f944 b1bd f447 f3bd 3edc 103e 1469 983d
000000d0: c61d 05be 7c6a 92bd f09f 183d a280 88bd
000000e0: 2cac 23be f7ff 8e3d b750 a33e 40eb d8bd
000000f0: 7b16 f0bd 3e07 363d 13e7 85be bc0f 78bd
00000100: cde8 113f b41c 15bd 2692 103f 51ad cb3e
00000110: a07f e13e 93dc 15bf c2e4 9a3e b1ce 3a3d
00000120: b511 e3be ff17 e6bd 5aff bcbe 680b 943c
00000130: 793f 20bf a368 8fbd f50e 6f3e 1bcd 1bbe
00000140: 1f63 d53e 9b9a abbd 3db7 b23e 6e00 5c3e
00000150: 069d 443d eead 903e 82b8 7b3e 7650 b3be
00000160: 5472 a6be 976f 8abe 11be f33d ab23 083f
00000170: a89a cebe 5cec ee3e ab3c 963d f809 913d
00000180: 17c6 74be 511c 183e 3533 3abe b2ec c9be
00000190: 3638 0dbf d3a4 783e 85d3 f3be b34d 44ba
000001a0: 2bc1 f63e 6a15 2a3e 27e9 9a3d a4ef 1fbe
000001b0: cd30 113f 17ff d83d 9aa4 563d f5eb a03e
000001c0: daa7 d7be 38d4 5cbe 760f efbe 4eb4 edbd
000001d0: e52e 6dbe 750d 4abe 8780 8ebe b61f 023f
000001e0: b8ba 8b3e 7360 b33e 5825 67bc 934e d1be
000001f0: a6c0 c73e d2ef f2be 2bc8 1a3c 2e1d c7bc
00000200: fae5 e43c c47d 203d 9d5b 353e 7367 083e
00000210: 4c88 c23d 87f8 bdbd c9cc a23b da42 523e
00000220: da4f 1dbe 2714 453e fd26 24be f552 223d
00000230: 7260 c43d 812d 6b3d 5d66 473e 4a8f 003e
00000240: 2e49 a5bd f615 7fbd d06c ab3d 6520 dfbd
00000250: 3998 60bd 3229 053e f945 2dbe b977 80be
00000260: dc27 29be b8f4 2bbc 01ff bd3d 5607 453e
00000270: 7698 ffbd 9f61 65bd dc04 6bbd 4513 3f3e
00000280: ea16 0e3c 73c1 803e e475 463e 01c1 643e
00000290: 9704 98bd be7f a3be 5219 043e 9ed3 c9bd
000002a0: 25cf a9be 7882 203e be30 2ebd 1a4f 92be
000002b0: ac23 bfbc 7922 0abe 5cb8 893e 69bc 40bd
000002c0: 4070 07be d701 3bbe 5e8a fc3c d827 7abe
000002d0: 0724 dcbd 2ea3 a4bc d892 f5bc c95c 32be
000002e0: 4cd7 dbbd 60ec 80be 58ab 743e 0cc1 c63d
000002f0: 38fa 92bc 80c1 8e3e 74c0 1ebe 9ac9 bc3d
00000300: b1d8 ff3e c113 0b3c ece6 453e 7bbe d33e
00000310: b1d8 f13e 2949 f7be c54f 813e 671e c0bd
00000320: a07e cbbe a057 15be d877 8ebe 1bd3 37be
00000330: 8526 f8be 6674 1bbe fb8b 113e b132 003d
00000340: 91fc b63e 1e1a 5e3e ce67 013f ddc3 9d3d
00000350: 0b8a b7bd 37e6 fb3e 4b1a 8a3e bb21 a4be
00000360: 7e82 e1be 480f 56be e646 5b3e 7a0b b33e
00000370: f0cc ddbe e92d 093f 992a 2bbd 204a fb3c
00000380: dd07 dcbe c65f 3a3e a298 ebbe db86 1abf
00000390: 926f 12bf 3454 233f a838 08bf 36e7 4f3e
000003a0: 69e2 f63e 6fbb 8a3e 0b17 a63e 8907 fd3b
000003b0: 0684 033f e263 42bd eded 193e d8c9 c33e
000003c0: aa52 04bf 4877 10be aaed f3be 3897 8fbe
000003d0: 0985 01be 4117 f1be 5fc7 0dbf 5f25 033f
000003e0: 5d2e 303f 39c2 133f 33c7 2bbe 5369 b3be
000003f0: 5ad4 bb3e 48aa e3be a039 03be 9ab7 903e
0.4989864 0.4370855 0.7995791 0.4910995 0.28877807 -0.6931063 0.16197997 0.2310765
-0.8465451 0.51020485 -0.5900082 -0.60754275 -0.71964216 -0.63457954 0.77314544 0.034486637
0.37149206 -0.26068327 0.3982641 -0.44145775 -0.572013 0.6782419 0.42589504 -0.8048853
-0.40992886 -0.47074634 0.5752151 0.67425144 -0.82777256 0.40016773 -0.4868537 0.2732027
-0.007210502 0.1933853 0.15433608 -0.023243707 0.04431799 0.043274097 -0.057411626 0.03726138
0.067235045 0.26069063 -0.042730007 -0.20517409 -0.18326885 -0.28887403 0.1464706 0.011623961
-0.086557336 -0.11878958 0.14146516 0.07441917 -0.12999639 -0.071492165 0.037261903 -0.0666516
-0.15983647 0.06982415 0.31897518 -0.105917454 -0.11723038 0.0444405 -0.26152858 -0.06056188
0.5699585 -0.036404327 0.56473005 0.39780667 0.44042683 -0.58539695 0.30252653 0.045607273
-0.44349447 -0.11235046 -0.36913568 0.018071845 -0.6259685 -0.0700238 0.2334555 -0.1521496
0.41677186 -0.08379098 0.34905425 0.21484539 0.04800131 0.28257698 0.24582103 -0.35022324
-0.325091 -0.2703826 0.11901487 0.53179425 -0.40352368 0.46664703 0.0733579 0.070819795
-0.2390369 0.14854552 -0.18183596 -0.39438397 -0.55163896 0.24281625 -0.47622314 -0.0007488385
0.4819425 0.16609731 0.075640015 -0.1561876 0.5671509 0.105955295 0.05240307 0.3143002
-0.42120248 -0.2156533 -0.46691483 -0.11606656 -0.2316242 -0.19731696 -0.27832434 0.5082964
0.27290893 0.35034522 -0.014108025 -0.4088026 0.39014167 -0.47448593 0.009447138 -0.024305906
0.027941693 0.03918244 0.17710729 0.13320713 0.09498653 -0.092759185 0.00496826 0.20533314
-0.15362492 0.19245969 -0.16030498 0.039629895 0.09588708 0.057416443 0.19472642 0.1255466
-0.080705985 -0.062276803 0.08370364 -0.10894851 -0.05483267 0.13003996 -0.16921224 -0.2509134
-0.16519111 -0.010495357 0.09277154 0.1924108 -0.124802515 -0.0560013 -0.05737768 0.18659694
0.008672455 0.2514759 0.19380909 0.2233925 -0.074227504 -0.31933397 0.12900284 -0.09854816
-0.3316585 0.1567477 -0.042526953 -0.28575975 -0.02333244 -0.13489713 0.26898468 -0.047054682
-0.13226414 -0.1826242 0.030827697 -0.24429262 -0.10749059 -0.020097341 -0.029977247 -0.17418207
-0.10734424 -0.2518034 0.23893487 0.097047895 -0.01794158 0.27882004 -0.15503103 0.0921814
0.4997001 0.008488596 0.19326371 0.41356263 0.47235635 -0.48298004 0.25256172 -0.09380799
-0.39745045 -0.14584208 -0.2782581 -0.17951624 -0.48466888 -0.15181121 0.14213555 0.031298343
0.35739568 0.2168965 0.5054902 0.077033736 -0.089618765 0.49199077 0.26973185 -0.32056984
-0.4404487 -0.20904267 0.21413764 0.34969693 -0.43320417 0.5358568 -0.04178867 0.030674994
-0.4297475 0.18200597 -0.46014887 -0.60362023 -0.5720149 0.6380036 -0.5321145 0.20303044
0.48219612 0.27096125 0.32439455 0.0077218455 0.51373327 -0.047458537 0.15032168 0.38239932
-0.51688635 -0.14108002 -0.4764226 -0.28045058 -0.12648405 -0.47088054 -0.5538234 0.512289
0.68820745 0.57718235 -0.16775207 -0.35041294 0.3668545 -0.44465852 -0.12814951 0.28265077

fch.0.0.bias f4 [32]
00000000: ab2c 63be dd06 66be ebb7 783e e2de ab3c
00000010: d3a2 3ebe 6a5a ccbd 5b35 9dbc 501e b7be
00000020: 9dbd d6bd 049d 253d fa88 9b3e c4d8 5d3e
00000030: 0d98 b2be dc65 abbd 79dc f4bd d73a a03e
00000040: f636 943e b2aa bb3d 31b5 ddbd d362 be3d
00000050: 3c27 6c3d 77be 053d ac9e 653d dcfe 623e
00000060: 1087 c7be 1a27 f1be 30df 0b3e 72f1 d43d
00000070: ea9d 46be a937 2d3e f594 9c3e a2d2 b4be
-0.22185008 -0.22463556 0.24288909 0.020980302 -0.186168 -0.099781826 -0.019190481 -0.35765314
-0.104853846 0.040432945 0.30377942 0.21664721 -0.3488163 -0.083690375 -0.11956114 0.3129489
0.28948182 0.09163417 -0.10825575 0.09296193 0.057654604 0.032652345 0.056059524 0.22167534
-0.38970232 -0.47100145 0.13659358 0.103976145 -0.19396177 0.16915764 0.30582395 -0.3531695

fch.1.0.weight f4 [32, 32]
00000000: 7f1c d23e 3368 82bd c89f ad3d 0f7b 1e3e
00000010: 6d0f bbbd be0d 323c 2823 7abe bfa7 683e
00000020: 4b1e b53d 4bbd ae3d 31a1 393d 537e a0bc
00000030: 9378 1a3e cc30 e03c 265d 42be e422 023e
00000040: b55a 193e fbd2 403d b157 22be 1d02 96be
00000050: 2da1 3d3e bbd6 55bd d6ff 3dbe da0b 4e3e
00000060: 421c b3ba a88a f1bd 6fba 2fbd bd81 41be
00000070: fec0 813d 96fe 27bd ae8a 0abd cf74 62be
00000080: a193 10be 7f8c 973e 6fce a33e 4f6e dbbe
00000090: c557 833e 71b7 943e c255 d33e 90ff b9be
000000a0: 12e2 143b be71 a2bc e578 0d3e 1039 64be
000000b0: 5d8d 75be 4288 213f f1b9 2b3e 7750 0c3d
000000c0: 6fc2 d5be bb1a 28be cc1e 98be 4e48 5ebe
000000d0: 3c86 423b dc44 bc3c f65d 8bbe 00bc debe
000000e0: 4def a3be 9e1c d8be eacc 20bd f354 413d
000000f0: 4dd6 b8bd 23e7 c73d f07e a9be 29a5 58be
00000100: 5e93 fbbe f6d6 2a3e db92 433d 6aaa f9bd
00000110: 7767 553e 7965 d73d 4702 5fbd f998 8ebe
00000120: c7ae 083d ecaa cebb 1730 3e3e 4347 88be
00000130: cf61 ebbe 475b 6d3e bed5 8e3d c21f ff3e
00000140: 3c99 3abe 3efb 4abe 3d59 dbbd 7791 ccbc
00000150: c049 b73c 1a4a be3d 7dc9 e33d 6365 cabe
00000160: 4747 f0be 471f 6bbe 6a0d 82be 6eb8 d7bd
00000170: e835 8abe c0b6 f93e ca79 4a3d 3bf3 94be
00000180: 74c2 0d3f c5b7 0a3e 13cb 8f3d d615 03be
00000190: ff39 d5bc 3681 7fbd 24e5 99bd 0892 eebc
000001a0: f931 8c3e 921f 46bb 0330 813d 9eb5 2bbe
000001b0: b50e 73bd f343 8fbd 5afb a33d c120 ebbc
000001c0: 6898 5c3d 126d e93d 01f2 47be dcba 1d3c
000001d0: d6ab 0dbe 156a aebe f69f a6be a568 293f
000001e0: 25ed 8d3d a960 08bd 3c0f d03d 74c1 bfbe
000001f0: c677 bcbd b19e 58be 135b fcbd 46f9 fdbd
00000200: 59fa 173f d7be a33e 54b2 623e 13ff 2fbe
00000210: dc65 24bc c837 d8bc 9e79 fa3d 4181 3dbe
00000220: 883a 883e 4efa 4cbe 987b d23e fd88 aa3b
00000230: 4d60 89be 9b47 333e 0a29 f33d a1ff 763e
00000240: f792 7f3a b883 7cbe d2f7 08bf 0951 52be
00000250: 25fb 24be a701 86be 8aa2 b4be a519 c33e
00000260: c9ec aebe 3b16 77be e916 6bbe eb23 17bd
00000270: 5a9f 42be 693b e93e 7319 943d bf12 a4be
00000280: 25d9 9b3e c511 463e 96db e63d aae6 7a3c
00000290: ee0f 4abb 833b 97bd 5164 d1bd b1fb 483e
000002a0: fa1d 1ebe 029c cabd da24 8d3e 1f1f e13d
000002b0: 17af 8ebd a87a aa3c 88d2 853d b681 573e
000002c0: 85c4 2abe f491 3dbe 9572 2bbe a2b2 ef3d
000002d0: 8019 b8bc 4a8e 763d 8a52 873d b6e3 163f
000002e0: 8875 b6be 8dcb e3be 3b31 8abe c6aa 46be
000002f0: a67e 77bd 65b9 26be 7862 27bd b272 16be
00000300: e85b 92be eaf9 013e 32a0 cc3e cff2 cbbe
00000310: e5fe 543e b1d8 3c3e 2cd1 a73e 35d3 37be
00000320: 90f9 513e 85de 49be 3a4e 363e 7b81 abbd
00000330: 3793 8dbe 482a db3e b4fb 713e 6982 f73d
00000340: 4b20 7abe 451f 45be 09a8 cebe beb3 9abe
00000350: de8e 0dbe 1062 db3d b624 c8be f2a7 ccbe
00000360: 47a7 89be fec8 b6be 0569 95be b549 dc3d
00000370: de3a 2fbe 20b9 fe3b 7b05 56bc 8410 bfbd
00000380: ec37 303f 3941 43bd d2f7 22be 3ebe e53d
00000390: 1572 a5be 56ca 39be 59f8 3abe 6e4e f9bd
000003a0: 7769 bdbe dd5f b23e 6435 923d 9724 5f3e
000003b0: 9697 863c f0a1 d2bd 5898 64be 6d17 93bb
000003c0: a752 4a3e 0cae a93e 69e7 993d 8192 ad3d
000003d0: 4563 eb3e 9869 90bd f7ad 343e 60ba 473f
000003e0: e6d1 6c3d b7e6 25bb 6e2e 3f3d 234a e83d
000003f0: 6dc9 fabd 82a9 6e3d 4986 b13e 00ed 3c3d
0.41037366 -0.06367531 0.084777415 0.1547663 -0.091338016 0.010867534 -0.24427474 0.2272024
0.088436686 0.085321985 0.04531974 -0.019591486 0.15085058 0.027367018 -0.18980846 0.12708622
0.14976008 0.047076207 -0.15853764 -0.29298487 0.18518515 -0.052206736 -0.18554625 0.20121709
-0.0013665038 -0.11794025 -0.042902406 -0.18897147 0.063356385 -0.041014276 -0.03382366 -0.22114871
-0.14118816 0.29599378 0.31993434 -0.42857596 0.256529 0.29046205 0.41276366 -0.3632779
0.0022717756 -0.019829627 0.13815649 -0.22287393 -0.23979707 0.6309854 0.1677015 0.034256425
-0.41749904 -0.16416447 -0.29710996 -0.2170727 0.002968206 0.022982053 -0.27220124 -0.43502808
-0.3201851 -0.42209333 -0.03925792 0.047200155 -0.0902525 0.09760883 -0.33104658 -0.21156754
-0.4913587 0.16683564 0.047747474 -0.12190707 0.2084025 0.10517401 -0.05444553 -0.27851084
0.033369806 -0.0063069966 0.18573032 -0.26616868 -0.4597306 0.23179351 0.06974362 0.49828917
-0.18222517 -0.19822404 -0.1071038 -0.024971707 0.022374034 0.092914775 0.11122415 -0.39530477
-0.4692938 -0.2296115 -0.2540086 -0.10533224 -0.26994252 0.4877224 0.049432553 -0.2909182
0.55374837 0.13546665 0.07021155 -0.12801298 -0.026028631 -0.062379085 -0.07514408 -0.029122368
0.27381876 -0.003023122 0.06307986 -0.167685 -0.059340198 -0.06995382 0.08006926 -0.028702142
0.053856283 0.11397757 -0.19525911 0.00962707 -0.13835081 -0.3406531 -0.32543916 0.661753
0.06929997 -0.033295307 0.10159156 -0.3745228 -0.092025325 -0.21154286 -0.123220585 -0.12401061
0.59366375 0.31981537 0.2213834 -0.17187147 -0.010034051 -0.026393786 0.12230228 -0.18506338
0.26607156 -0.20017359 0.4110992 0.0052043186 -0.26831284 0.17507784 0.11873062 0.24120952
0.00097493775 -0.24659622 -0.53503144 -0.20538725 -0.16111429 -0.26173136 -0.35280257 0.38105503
-0.34165028 -0.24129574 -0.22957958 -0.03689949 -0.190061 0.4555314 0.072314166 -0.32045552
0.30439106 0.19342716 0.112723514 0.015313784 -0.0030832249 -0.07384398 -0.10224212 0.19627263
-0.15441123 -0.098930374 0.27567178 0.10992264 -0.069669895 0.02081044 0.06534296 0.21045575
-0.16676529 -0.18512708 -0.16742928 0.117039934 -0.022473097 0.06019429 0.0660754 0.5894121
-0.35636544 -0.44491234 -0.26990685 -0.19401082 -0.060423516 -0.1628166 -0.04086539 -0.1469219
-0.28585744 0.12692991 0.3996597 -0.39833686 0.2080036 0.18442036 0.32776773 -0.17951663
0.20505357 -0.1971379 0.17803279 -0.08374306 -0.2765138 0.42805696 0.23631173 0.12085421
-0.24426381 -0.1925021 -0.40362576 -0.30215257 -0.13824031 0.10712063 -0.39090508 -0.39971882
-0.26885435 -0.3570022 -0.29181686 0.10756246 -0.171123 0.0077735335 -0.01306283 -0.09329322
0.6883533 -0.047669623 -0.15914848 0.112179264 -0.323136 -0.18143591 -0.182588 -0.121731624
-0.36994526 0.34838763 0.0713909 0.21791302 0.016429704 -0.102847934 -0.2232374 -0.0044888766
0.19758092 0.331406 0.07514841 0.08475209 0.45974174 -0.070513904 0.17644487 0.7801876
0.057817362 -0.0025314519 0.04667514 0.113422655 -0.1224545 0.058267124 0.34672764 0.04612446

fch.1.0.bias f4 [32]
00000000: 9193 05be 8515 513d 3367 7a3d 6054 95bd
00000010: d70c 1d3d f069 773b e6f5 febd 2cfc 5c3e
00000020: 4d17 95bc 908e 5ebc aa41 c53c 1a77 d03d
00000030: 8ac0 7b3e 98b6 2d3e 85d5 96be 4c5c 1c3e
00000040: 48a5 883d 26ce 5b3e 2a9e 4fbd a512 40bd
00000050: 8c1b 12be c7e8 083d e4e5 aebd 4156 6b3e
00000060: 4e2d b2be 3e6c 5cbe e2e7 f8bd f978 23be
00000070: d1c4 803d 2bd5 cabd 81b9 8f3d f27d 363e
-0.13044573 0.051045913 0.061133575 -0.07291484 0.038342323 0.0037752353 -0.12449245 0.21580571
-0.018199587 -0.013583794 0.024079163 0.10178967 0.24585167 0.16964185 -0.29459777 0.15269583
0.0667215 0.21465358 -0.050687946 -0.04689278 -0.14268321 0.03342512 -0.08539942 0.22982122
-0.3480019 -0.21525666 -0.12153603 -0.15964116 0.0628754 -0.0990394 0.07017804 0.17821482

fce.weight f4 [1, 32]
00000000: 56e8 073e 3612 18bf 240e 11bf a2e1 413f
00000010: 4fd0 fa3e 6ddb e73e 5d31 e4be 9823 953e
00000020: 8081 2a3f 1b92 b63e bbe4 193e 7824 303f
00000030: fa56 b9be 2df0 573e a7f1 e43e 8725 713e
00000040: 7243 033f c63d c13e 3c60 6c3e 7e72 cb3e
00000050: b3e3 b73e 9e7e 183f 1dcb 07be 9ba5 f9be
00000060: d3fe 203f 94a7 3c3f e617 d9be 6e2d d9be
00000070: 99f2 17bf 64b0 0f3f f2bc bbbe 1a89 56bf
0.13272223 -0.5940279 -0.566622 0.75734913 0.48987052 0.45284596 -0.4456891 0.29128718
0.6660385 0.35658345 0.1502866 0.68805647 -0.3619917 0.21087714 0.44715616 0.23549472
0.5127479 0.37742442 0.23083586 0.39735788 0.35915908 0.595682 -0.13261075 -0.4875916
0.6288883 0.73693204 -0.42401046 -0.42417473 -0.5935455 0.56128526 -0.3666759 -0.8380295
